training/perceptron.onnx (onnx, 2864 bytes, 4 tensors)

model/dense_1/MatMul/ReadVariableOp:0 f4 [50, 7]
000000 c3 b8 de bd 14 93 94 3e 0c 89 2d 3e d7 07 fc bd
       -0.10875084 0.29018462 0.1694681 -0.12306183
000010 f8 c6 9c 3e 41 fe 3e 3e 7c 37 62 3d 6a ac ec bd
       0.3062055 0.18651678 0.055228695 -0.11556323
000020 23 b8 a7 bd b0 7a 51 bd 0e 35 7b bd 3e b9 a3 3e
       -0.08189418 -0.051142395 -0.061329894 0.31977266
000030 51 69 f1 3e e6 5c e9 be 59 4e ca 3e f0 cf 4e be
       0.47150663 -0.45578688 0.395129 -0.2019651
000040 48 d0 1f 3e 66 e6 6e be a8 b6 b5 bd 5a c5 11 bb
       0.15606797 -0.23330078 -0.088727295 -0.0022242875
000050 4e ab 37 bd 50 2e 41 be 5a ea 2b 3c c1 76 83 be
       -0.044841103 -0.18865323 0.0104928855 -0.2567654
000060 8d f9 90 3d eb 78 fe 3e 9d eb 60 be 3b ee 8a 3d
       0.07078848 0.49701628 -0.2196488 0.0678372
000070 32 23 0b 3e 32 60 96 3e 04 85 d9 3d e8 f7 b8 3e
       0.13587645 0.29370266 0.10621074 0.36126637
000080 2a 35 27 be 03 e3 9f be 56 b6 a0 bb c1 1e d2 be
       -0.16328874 -0.31227884 -0.0049045486 -0.41039088
000090 0e ae ea 3c 66 54 1d bf 33 f9 dd 3d 2e 97 43 3f
       0.028647449 -0.61456907 0.108385466 0.76402557
0000a0 1e fb 9c bf 67 38 09 3e df 84 d5 3e 89 16 b2 bb
       -1.2264135 0.13400422 0.41702935 -0.0054348153
0000b0 48 e1 95 3e b8 5b be 3d 9e 18 c3 be 33 1d 43 bf
       0.29273438 0.09294838 -0.3810472 -0.7621643
0000c0 b1 26 71 bd 24 3b 61 3e e8 a8 4f 3d 3b 65 69 be
       -0.05887479 0.21995217 0.05069819 -0.22792523
0000d0 33 fe 90 3e 59 1f 9f 3e f2 18 ab 3e 42 63 ec 3a
       0.2831894 0.31078604 0.3341747 0.0018034952
0000e0 17 71 8a be be 25 17 be 46 e9 7e be 30 57 11 3e
       -0.27039406 -0.14760491 -0.24893674 0.14193416
0000f0 10 e5 3d bd 8c 17 49 be a6 70 f0 bd 82 09 8a be
       -0.04636103 -0.19637889 -0.11740236 -0.2696038
000100 0d 72 73 3e 67 b5 1c bd a4 bb 64 3e 52 66 be 3d
       0.23773976 -0.038258936 0.22337204 0.0929686
000110 32 fd 0d 3e 6c 8c 7a be e2 5d 37 3e 44 c0 94 3d
       0.13866118 -0.24467629 0.17906907 0.07263234
000120 ca cf 46 3e 2a fe f7 bd 58 12 2c bd 29 19 89 3e
       0.19415203 -0.12109025 -0.04200968 0.26777008
000130 60 63 0e be ad 47 f7 be 67 d3 a3 3e 39 38 0d bf
       -0.13905096 -0.48296872 0.31997225 -0.55163914
000140 09 3a d8 3e c8 a7 81 3f ce 71 2e 3f 82 9d 0a 3d
       0.42231777 1.0129328 0.681424 0.033841617
000150 3e 3c 61 be 51 53 fc 3e 56 f8 38 3c 42 24 13 3f
       -0.21995637 0.49282315 0.011289677 0.574772
000160 f7 be 02 be 31 6a 35 be d0 43 ac bb 8e 4a 25 bd
       -0.1276816 -0.1771629 -0.0052571073 -0.040354304
000170 40 53 17 be 31 10 29 bd 22 9b 21 bd 41 7a 42 bb
       -0.14777851 -0.041275207 -0.039454587 -0.002967492
000180 98 d1 12 3f d7 29 fe 3d d8 b8 0c 3d ad af 63 be
       0.57351065 0.12410324 0.03435597 -0.22234984
000190 c5 74 51 3e 8a 1a 0e be f7 d1 6a 3d 2c 7d 1f 3e
       0.204547 -0.13877311 0.057329144 0.15575093
0001a0 75 27 e7 be 20 f5 53 bc 42 f0 29 3e 26 f4 6e 3e
       -0.4514729 -0.01293686 0.16595557 0.23335323
0001b0 68 9c 0a bd 00 15 e1 ba 9f 42 87 3e 80 f7 57 3b
       -0.033840567 -0.0017172396 0.26418015 0.0032953918
0001c0 ce ce 55 be 30 c5 e0 3d c2 18 04 be 79 8d a5 3e
       -0.20879671 0.109751105 -0.1290007 0.32334498
0001d0 80 c4 09 3e c0 ea 65 3c bb 8a 3c be df 3a f5 bc
       0.13453865 0.01403302 -0.18412296 -0.029935298
0001e0 89 d0 c3 bd a6 9d 80 be 33 73 55 be 86 46 17 bc
       -0.09561259 -0.25120276 -0.20844726 -0.009233123
0001f0 d4 fb fc 3d c1 eb 8d 3d 52 3b b3 3e 03 a0 ba bd
       0.1235272 0.06929732 0.35006195 -0.09112551
000200 23 99 f6 bc 1f 67 ba 3e 2d 2a 8c 3e 43 2c 0d be
       -0.030102318 0.364068 0.27375928 -0.13786416
000210 58 96 b5 be 79 99 a1 3d 91 a0 ab 3e 11 7c f6 3d
       -0.35466266 0.07890601 0.3352094 0.120353825
000220 58 d0 37 be 7a 15 99 be 8c 98 09 be d3 df 33 3d
       -0.1795057 -0.29899198 -0.13437098 0.043914627
000230 bd 3a 1d 3e c2 4f 57 3e 74 4c 0e 3e 04 08 43 3c
       0.15354438 0.21026519 0.13896352 0.011903767
000240 6b 09 d0 3e 7a 5e 9c 3e 95 d3 0e be 56 d4 84 3c
       0.40632185 0.3054083 -0.139479 0.01621453
000250 cd e1 04 3e dc db 8a bd 99 d9 63 3e e5 ad cb 3d
       0.12976761 -0.06780216 0.22250976 0.09945277
000260 46 4f 9a be 79 c8 73 3e 92 8d 5f 3f 36 d5 40 be
       -0.30138606 0.23806943 0.87325394 -0.18831334
000270 ca 2c 7e 3f 6b 6a c8 bd 5d c7 ba bf 98 17 df bf
       0.9928709 -0.097859226 -1.4592091 -1.7429075
000280 8b c2 c2 bd 9d 52 06 3f 7f 4b bf bd e5 34 96 3e
       -0.095097624 0.5246981 -0.093405716 0.2933723
000290 42 85 57 be 5a 4f b1 be c1 11 26 bf b6 bc 36 bf
       -0.21046928 -0.34630853 -0.6487084 -0.713817
0002a0 48 30 76 3e 6e b0 ae 3e a4 12 cb 3d c3 13 13 3f
       0.24041855 0.3411898 0.09915665 0.5745203
0002b0 a5 0c 93 3c 7b e2 99 bd cc b6 36 3e 78 be 08 3e
       0.017950365 -0.07513901 0.17843169 0.13353908
0002c0 c5 9e a2 3e 7d 2a 95 3e 71 2f 8a be 4f 7b 93 3e
       0.31761757 0.29133978 -0.2698932 0.28805014
0002d0 c3 b1 66 be 97 e1 9a be b4 b8 a3 3e da 74 19 bd
       -0.22528748 -0.30250236 0.31976855 -0.037464954
0002e0 28 ec ae bd 0b e4 dc bb 8a 4e 99 3d 74 74 59 3e
       -0.08541137 -0.006741052 0.07485683 0.2123583
0002f0 8f 37 5c 3e de 4c 93 3e a4 fa 35 be a2 3a e6 3e
       0.21505569 0.28769583 -0.17771393 0.44966608
000300 85 7a 68 be 8a a4 27 bf 65 2b 02 c0 01 1e 97 3b
       -0.22702987 -0.6548544 -2.0338986 0.004611731
000310 09 d6 bf 3d e6 f5 71 3e 98 08 40 3c 8e 5d f9 3d
       0.09366996 0.23628959 0.011720799 0.12176047
000320 71 c0 15 3e de f9 1f 3e 5b 0b b1 be 18 6d 30 3e
       0.14624192 0.1562266 -0.34578976 0.17229116
000330 29 9e d4 bd f1 af 33 3f 6b 68 b0 bd 54 2c 46 3d
       -0.10381729 0.7019034 -0.08613666 0.04838212
000340 63 17 21 bf 24 a6 4a bf 78 c2 b9 be 6f 15 17 be
       -0.6292631 -0.7915976 -0.3628118 -0.1475427
000350 98 f3 de 3d 3d 6d 5d 3c 26 89 e6 3c 69 fa 0d 3f
       0.108863056 0.013514814 0.02814157 0.5546022
000360 50 ce 4b be 84 03 8c 3d 69 ed 86 3d 05 c5 92 be
       -0.1990292 0.06836608 0.06588251 -0.2866594
000370 c0 e2 90 3e 08 24 a2 3e 06 9d 1e 3f cf 84 e5 3d
       0.28297997 0.31668115 0.6195835 0.11206972
000380 a8 8d c8 3d 89 a2 9b 3e 71 0f 8c 3e 85 01 88 3e
       0.09792644 0.30397442 0.2735553 0.2656366
000390 6c c1 dd bd fd 3b 9b be 82 9d 23 3e bb ee 20 3e
       -0.10827908 -0.30319205 0.15978053 0.15716068
0003a0 52 0f 8a 3e 03 92 17 3e f7 15 aa bd 6c 40 25 3d
       0.26964813 0.14801793 -0.08304971 0.04034464
0003b0 c9 b3 ab 3e 02 be 0f 3c 06 6f a5 bd 04 ec 8a be
       0.33535603 0.008773329 -0.08077817 -0.2713319
0003c0 5b 1e 28 be b2 71 73 3e de 9f 2f 3e 38 eb 48 3d
       -0.1641783 0.2377384 0.17150828 0.049052447
0003d0 b7 ed a1 3e 60 40 a2 be ed cd 06 3f 10 ed ba bd
       0.31626675 -0.3168974 0.5265797 -0.09127247
0003e0 48 08 2c 3f 80 eb a0 3e b7 d0 ad bd c0 3a e8 3c
       0.67200136 0.31429672 -0.08487075 0.028348327
0003f0 0c d0 a5 bd 4a 33 f1 3c 2b 19 4a 3e 5a a9 03 3e
       -0.080963224 0.029443402 0.19736163 0.12857571

model/dense_1/BiasAdd/ReadVariableOp:0 f4 [7]
000000 c7 81 46 3e 88 f6 c1 bd a6 44 73 3e e8 95 6f 3d
       0.19385444 -0.0947085 0.23756656 0.05849257
000010 fa 4c 81 3d 46 bd 35 be 7b 4e 04 bf
       0.0631351 -0.17747983 -0.5168225

model/dense/MatMul/ReadVariableOp:0 f4 [2, 50]
000000 63 c2 14 3e e1 f4 f7 3e 81 10 62 3e 70 4c 9f 3d
       0.14527278 0.48429015 0.22076608 0.07778251
000010 6b b1 03 3f 1d a4 78 3e da 81 15 be f0 e8 23 3e
       0.51442593 0.24281354 -0.14600316 0.16006827
000020 c5 86 2f be ad ff 9d bd 4f a5 05 be b0 1e d6 3e
       -0.17141254 -0.07714782 -0.13051341 0.41820288
000030 1c a2 ae 3e 2c a6 f6 3e dc ab 5b 3e b4 de 95 bd
       0.34108055 0.48173654 0.21452278 -0.07317868
000040 ec bc 26 be ae 50 ea 3c ad b1 4a be 4a d5 6b be
       -0.16283005 0.028602924 -0.1979434 -0.23030582
000050 5e 8a a1 3e 31 0e b3 be 0f ba b7 3e 26 1e 63 be
       0.31550878 -0.34971765 0.3588414 -0.2217947
000060 c2 b6 a5 3e ab 71 ab be 93 c7 99 be ce 1a 61 be
       0.32365996 -0.3348516 -0.30035076 -0.21982881
000070 f7 f7 a0 bb 19 4a 49 be 44 e7 75 3e 06 83 c4 3e
       -0.004912372 -0.19657172 0.24014002 0.38381213
000080 65 7c 31 be a2 33 80 3e e0 ec 89 bd 9f 90 d2 be
       -0.17332609 0.25039393 -0.067346334 -0.41125962
000090 db 41 fa bc 54 e8 a4 3d 43 f1 3c be a4 9e a8 be
       -0.03054898 0.080521256 -0.18451409 -0.32933533
0000a0 f1 1e 7e be 0e 2e 54 be d6 f2 ee 3e 25 ae f6 3e
       -0.2481649 -0.20720693 0.46669644 0.48179737
0000b0 a1 6f a3 bd 38 fd 2b bd 64 df 9a 3e 0d 95 05 3f
       -0.07980276 -0.041989535 0.3024856 0.5218056
0000c0 62 fc 47 3d d1 86 0b bf 90 2c bc 3e 76 d6 13 3e
       0.048824675 -0.5450259 0.36752748 0.14437279
0000d0 6b f1 30 bf be 0d 23 bf f9 d8 62 be ff b1 54 bf
       -0.69118375 -0.63692844 -0.22153081 -0.830841
0000e0 25 01 da be c5 38 11 3f 3d 2e 2f be bf 00 f7 3e
       -0.42578998 0.5672725 -0.17107482 0.48242757
0000f0 30 d0 44 bd 83 f9 e9 3e 78 3f 56 3e 8d 8e 87 3e
       -0.048050106 0.45698175 0.20922649 0.26475945
000100 5d 6c 47 be 58 31 67 be a6 b2 62 be 22 2c a2 be
       -0.19474931 -0.22577417 -0.22138461 -0.31674296
000110 ba ab 3a 3e 70 63 d0 3d 0e 2b c8 3e 42 c4 97 3d
       0.18229571 0.10175216 0.39095348 0.0741048
000120 58 a4 39 3f 34 87 df be 47 ac 75 be 92 86 73 be
       0.72516394 -0.4365784 -0.239915 -0.23781803
000130 d9 5d be 3d 70 73 4d 3f cf 14 88 3e 7f 4a ea be
       0.09295244 0.8025427 0.26578376 -0.4575996
000140 df 38 f2 3e 9c c6 03 3f 48 0d 5e bd 47 cf bc 3d
       0.47309014 0.5147493 -0.054211885 0.092192225
000150 62 c8 08 be d9 6e 55 bc b1 c2 1e 3e de 05 78 bf
       -0.1335769 -0.013026916 0.15503956 -0.9688395
000160 8e 11 96 be 78 22 09 3f 46 6c 89 3e cd bc 8b bf
       -0.29310268 0.5356822 0.2684042 -1.0916992
000170 31 65 76 bd 2d 65 d4 3e fa d5 6f bf 34 76 94 bd
       -0.060155097 0.4148344 -0.9368588 -0.07249108
000180 24 d7 fe be 5f bc 71 be 6d 01 0b 3f 5c ff 19 bf
       -0.49773514 -0.23607014 0.5429905 -0.6015527

model/dense/BiasAdd/ReadVariableOp:0 f4 [50]
000000 f4 54 56 bd 19 7d 3a bd dc 8f 0f 3d 2e a4 0f 3e
       -0.05232711 -0.04552946 0.035049304 0.14027473
000010 b3 b1 d2 bd de 71 e6 3e 41 39 ab 3e 55 56 86 bd
       -0.102878 0.4500875 0.3344212 -0.06559435
000020 00 00 00 00 40 89 7d 3b 00 00 00 00 7a 67 c0 be
       0.0 0.0038686544 0.0 -0.37578946
000030 82 eb 18 be e6 c4 86 bd 78 a3 be 3d 00 00 00 00
       -0.14933589 -0.06580524 0.09308523 0.0
000040 00 00 00 00 f6 99 26 bc d4 f3 27 3e e7 4c 01 bd
       0.0 -0.010168543 0.16401607 -0.03156748
000050 03 69 99 bd e4 fc 39 bc 90 40 00 bf 8b 59 d2 3e
       -0.074907325 -0.011351798 -0.50098515 0.4108394
000060 62 1f 9f 3d 00 00 00 00 b3 0c aa bc 19 09 9f be
       0.07769658 0.0 -0.020758009 -0.31061628
000070 5a c9 9a bc 23 67 d8 3e 6b 46 ba bd fc 67 d5 bd
       -0.01889484 0.42266187 -0.090954624 -0.10420224
000080 00 00 00 00 83 41 da bc 00 00 00 00 e9 fe b4 3e
       0.0 -0.026642567 0.0 0.3535073
000090 29 41 30 3c 93 7c 00 3f 00 00 00 00 1f b5 a9 3d
       0.010757723 0.50190085 0.0 0.08286499
0000a0 98 c5 01 bc 0d fe 44 3f 4e bd 20 bc 60 f6 ec be
       -0.007920645 0.7695015 -0.009810759 -0.4628172
0000b0 51 65 11 3f 00 00 00 00 31 fa 2d 3e 18 26 85 be
       0.5679522 0.0 0.16989972 -0.26005626
0000c0 65 3d 42 bd 48 c1 29 3f
       -0.04742183 0.6631055
