training/perceptron.onnx (onnx, 2864 bytes, 4 tensors)

model/dense_1/MatMul/ReadVariableOp:0 f4 [50, 7]
-0.12628713 0.36566713 -0.11266686 0.41397983 0.13152377 0.057148326 -0.027496496 0.096793294
-0.1515376 0.03026987 -0.020374214 -0.15352954 0.12251733 0.18841909 -0.14382528 -0.013859928
0.050090224 -0.30913037 -0.028930247 0.056714505 0.29507342 -0.1311935 -0.20375559 -0.06840235
0.092469186 0.28879145 -0.088125944 0.26248005 0.027249902 -0.31584695 -0.2523205 -0.21483907
-0.27428702 -0.25631446 -0.22442089 -0.07017381 0.035243075 -0.27349433 0.16954508 0.66068935
0.6173148 0.078407355 -0.07329077 0.22198807 0.16706884 0.38115856 0.16522336 0.5922793
-0.12000274 -0.05281871 0.122697294 -0.30639 -0.089197814 -0.124574296 -0.2627489 -0.042844966
-0.04601205 -0.035750277 0.11953146 0.19543968 -0.031819392 0.70400685 0.0015137879 -0.5758939
0.16708386 -0.7713131 0.21221484 1.1870315 -0.76512957 0.040981587 0.18844685 0.037688166
-0.050421923 -0.25716117 0.15050945 -0.09245394 -0.28712183 0.16678143 -0.12028011 -0.2489184
0.35699216 0.5031379 0.5554253 -0.105854824 0.39175636 0.19955488 0.516621 0.3607835
-0.5761296 0.6815921 -0.016442563 0.10133046 -0.20277615 -0.04608527 -0.12034859 -0.17488298
0.31337807 -0.07537265 0.011878639 -0.3139987 0.15010557 -0.49095416 0.52849007 -2.5686717
-1.1544312 -0.20475152 0.30058044 0.13243277 0.033168122 0.5032967 0.3220322 -0.19753812
0.07468018 -0.20123279 0.31567106 -0.13198003 -0.013891876 -0.110744104 0.012842864 -0.19568463
0.21516845 -0.36708394 0.30783185 0.5987573 -0.4713721 0.027949633 -0.17880253 -0.19600813
-0.23834431 0.05207944 -0.013012826 0.20100722 -0.24666303 -0.33105737 -0.07972078 0.08811861
-0.1225266 -0.2112807 0.040251773 0.08786211 0.1645076 0.21547309 0.13187808 0.09093672
-0.07000247 -0.2619023 -0.17797649 -0.043412887 0.17104997 0.123815775 0.61946005 0.114304215
2.3679059 0.13840103 -0.18290111 0.019087235 -0.36195678 0.34541512 0.65823406 3.5217645
0.1417718 0.20218047 0.29036698 0.17870149 -0.23728736 0.20847765 -0.1450733 -0.30811697
0.066541314 -0.2706832 -0.11359836 -0.109676 0.12160078 0.1554366 0.2444835 0.4912681
-0.16000243 0.68346477 -0.35039482 -0.9873224 -2.013382 -0.08976522 -0.41005856 0.14406942
-0.2922503 0.23177318 0.4843817 0.084696256 0.025623934 0.11536592 0.06719973 0.035152648
-0.014381801 0.06104066 -0.41288102 0.009377302 0.06552535 0.13755426 0.2721211 0.020477325
-0.002652824 0.26729748 0.08653301 0.23367634 -0.007224083 0.3188332 -0.17357841 -0.2658095
-0.19667329 0.22896591 0.005673201 0.19980222 0.077178225 -0.24899927 -0.16455221 -0.22585109
0.10926952 0.6436479 -0.28815386 0.9536175 -0.529058 -1.3911004 -2.488837 -0.082286224
0.40358704 0.073329024 0.12121308 -0.08681648 -0.15841866 0.40180504 -0.5484727 0.019836962
0.30258256 0.09688875 0.27429226 -0.34953073 -0.6977184 -0.04544767 0.18868837 -0.024990045
0.031721897 0.09558274 0.22809218 0.28746033 -0.022566684 0.22261493 0.123370916 -0.14119534
0.14652035 0.26993647 0.611896 -0.32940596 -0.26888058 -0.005234904 -0.22951177 -0.096964315
00000000: 6a51 01be b938 bb3e e2bd e6bd 2af5 d33e
00000010: 2bae 063e 5d14 6a3d 5540 e1bc 903b c63d
00000020: ac2c 1bbe 85f8 f73c d3e7 a6bc d936 1dbe
00000030: 5eea fa3d eff0 403e ef46 13be c014 63bc
00000040: 682b 4d3d 5646 9ebe 20ff ecbc 784d 683d
00000050: dd13 973e 9757 06be 4ea5 50be 8816 8cbd
00000060: 7c60 bd3d 79dc 933e 607b b4bd c963 863e
00000070: 303b df3c b1b6 a1be 2730 81be c6fe 5bbe
00000080: 596f 8cbe a63b 83be 97ce 65be 49b7 8fbd
00000090: 0b5b 103d 7307 8cbe 3a9d 2d3e f022 293f
000000a0: 5808 1e3f 0994 a03d 7919 96bd d750 633e
000000b0: 1814 2b3e 3727 c33e 5030 293e 9e9f 173f
000000c0: ffc3 f5bd 6f58 58bd b848 fb3d 26df 9cbe
000000d0: 58ad b6bd cf20 ffbd 0687 86be 347e 2fbd
000000e0: 2277 3cbd e26e 12bd e9cc f43d 5721 483e
000000f0: 0d55 02bd cb39 343f 4b6a c63a c86d 13bf
00000100: 0818 2b3e c674 45bf d94e 593e a6f0 973f
00000110: 88df 43bf 4fdc 273d 36f8 403e e85e 1a3d
00000120: 3887 4ebd a1aa 83be 261f 1a3e 7e58 bdbd
00000130: a201 93be c0c8 2a3e 6b55 f6bd 77e4 7ebe
00000140: adc7 b63e a5cd 003f 5a30 0e3f 6aca d8bd
00000150: 4a94 c83e 1d58 4c3e 4641 043f 9db8 b83e
00000160: 3b7d 13bf d27c 2e3f 8eb2 86bc 5886 cf3d
00000170: 8da4 4fbe e8c3 3cbd 5279 f6bd 8614 33be
00000180: 1773 a03e fa5c 9abd a09e 423c 70c4 a0be
00000190: 46b5 193e 585e fbbe 204b 073f 1e65 24c0
000001a0: 67c4 93bf 62aa 51be aee5 993e 759c 073e
000001b0: 4cdb 073d 0dd8 003f 68e1 a43e 6f47 4abe
000001c0: ecf1 983d f80f 4ebe a39f a13e c625 07be
000001d0: c09a 63bc cecd e2bd e06a 523c 8d61 48be
000001e0: 1e55 5c3e 6df2 bbbe 239c 9d3e 2948 193f
000001f0: af57 f1be a1f6 e43c 0318 37be 5bb6 48be
00000200: 8810 74be 4051 553d c033 55bc d6d4 4d3e
00000210: 3c95 7cbe 5a80 a9be a644 a3bd 8877 b43d
00000220: 3aef fabd f859 58be 0bdf 243d 0df1 b33d
00000230: ae74 283e faa4 5c3e 0c0b 073e 083d ba3d
00000240: 745d 8fbd 0f18 86be 783f 36be b6d1 31bd
00000250: b927 2f3e 2093 fd3d ef94 1e3f 5418 ea3d
00000260: c58b 1740 00b9 0d3e 6e4a 3bbe d55c 9c3c
00000270: 6652 b9be 40da b03e 0782 283f 9764 6140
00000280: a02c 113e 6608 4f3e fbaa 943e 86fd 363e
00000290: 75fb 72be 2a7b 553e 188e 14be 82c1 9dbe
000002a0: d046 883d fd96 8abe 42a6 e8bd d09d e0bd
000002b0: d409 f93d c62a 1f3e e259 7a3e 7e87 fb3e
000002c0: add7 23be 8cf7 2e3f f366 b3be 29c1 7cbf
000002d0: 40db 00c0 d4d6 b7bd 32f3 d1be ef86 133e
000002e0: d5a1 95be f355 6d3e e100 f83e 3b75 ad3d
000002f0: 49e9 d13c f844 ec3d 03a0 893d 39fc 0f3d
00000300: a5a1 6bbc c505 7a3d 2465 d3be 41a3 193c
00000310: 2832 863d 06db 0c3e 7553 8b3e 10c0 a73c
00000320: 00db 2dbb 37db 883e 3838 b13d da48 6f3e
00000330: 00b8 ecbb 1b3e a33e 8abe 31be 2f18 88be
00000340: b964 49be 0a76 6a3e 42e6 b93b f498 4c3e
00000350: 9e0f 9e3d aaf9 7ebe 6080 28be 8245 67be
00000360: b3c8 df3d 1cc6 243f e788 93be 4720 743f
00000370: 5870 07bf 940f b2bf 1b49 1fc0 ae85 a8bd
00000380: f6a2 ce3e 872d 963d 903e f83d d7cc b1bd
00000390: 8038 22be 64b9 cd3e b568 0cbf 2081 a23c
000003a0: 1aec 9a3e 9c6d c63d 0970 8c3e b1f5 b2be
000003b0: ac9d 32bf 5627 3abd 8637 413e ecb7 ccbc
000003c0: d2ee 013d e2c0 c33d ff90 693e 002e 933e
000003d0: c4dd b8bc 2bf5 633e e4a9 fc3d 8395 10be
000003e0: 6e09 163e 1d35 8a3e 37a5 1c3f e6a7 a8be
000003f0: b7aa 89be 8f89 abbb 2205 6bbe 3a95 c6bd

model/dense_1/BiasAdd/ReadVariableOp:0 f4 [7]
-0.016772332 0.10294367 -0.05159408 0.12382997 0.2503808 -0.39361054 -0.24563736
00000000: 2166 89bc 21d4 d23d 5054 53bd 919a fd3d
00000010: ea31 803e 5287 c9be 5c88 7bbe

model/dense/MatMul/ReadVariableOp:0 f4 [2, 50]
0.34496254 0.02537692 -0.17171179 -0.24881086 -0.28812346 -0.17123044 0.23290552 -0.21159406
0.32064277 0.47790697 -0.01835671 0.20596497 0.54957634 -0.33746934 -0.49301624 0.09738365
-0.33291546 0.3079989 -0.33246386 0.045487437 -0.12541157 -0.83993065 -0.120832965 -0.055759788
-0.099944144 -0.19406137 0.3954625 0.41740447 -0.2915007 -0.161169 -0.35481128 0.3637243
0.49145764 -0.51130366 0.27715695 0.48436642 -0.30511478 -0.20233053 -0.20016721 0.5294839
-0.05514884 -0.774119 -0.029449215 0.04128555 -0.26312166 -0.25774372 -0.015945809 -0.23230648
0.018524537 -0.31453365 0.119916596 -0.13921507 -0.06849578 -0.15260935 -0.03248039 0.59167606
0.5894457 0.080134995 0.6716121 0.36136147 -0.10035597 0.7851705 0.18710938 -0.08066329
-0.7909342 0.6054205 -0.33521435 -0.5632563 -0.26024038 0.33115456 -0.23396444 -0.34692466
-1.0511149 -0.051758558 -0.0880211 0.8654102 0.3390354 -0.21147206 -0.19220063 -0.0076331794
0.12697569 0.6552986 0.04883858 0.41065952 0.27491337 0.4686482 0.16047125 -0.24157721
-0.0980514 -0.39732504 -0.17512392 -0.052842423 0.07674807 -0.26170886 0.10187911 -0.1642265
0.5530902 -0.33272386 0.26623997 -0.28221345
00000000: ee9e b03e 42e3 cf3c 37d5 2fbe 46c8 7ebe
00000010: eb84 93be 0857 2fbe c97e 6e3e 1dac 58be
00000020: 4a2b a43e 39b0 f43e d060 96bc 7be8 523e
00000030: 09b1 0c3f c8c8 acbe a06c fcbe 1471 c73d
00000040: e573 aabe 08b2 9d3e b438 aabe 0951 3a3d
00000050: e46b 00be b205 57bf 4677 f7bd 6064 64bd
00000060: 84af ccbd 06b8 46be 107a ca3e 0ab6 d53e
00000070: 943f 95be 7d09 25be d3a9 b5be 123a ba3e
00000080: 56a0 fb3e cce4 02bf 84e7 8d3e e0fe f73e
00000090: 0138 9cbe bc2f 4fbe a2f8 4cbe 428c 073f
000000a0: c0e3 61bd aa2c 46bf 7b3f f1bc 091b 293d
000000b0: e2b7 86be fcf6 83be c9a0 82bc c0e1 6dbe
000000c0: c5c0 973c 8e0a a1be d596 f53d 658e 0ebe
000000d0: 8447 8cbd a045 1cbe 280a 05bd 1578 173f
000000e0: eae5 163f d11d a43d c5ee 2b3f 5f04 b93e
000000f0: 6e87 cdbd ef00 493f 9a99 3f3e cc32 a5bd
00000100: aa7a 4abf d6fc 1a3f 37a1 abbe 9131 10bf
00000110: 3a3e 85be 178d a93e 6094 6fbe 1ca0 b1be
00000120: ef8a 86bf c800 54bd 6844 b4bd 868b 5d3f
00000130: 0c96 ad3e 228c 58be 3ed0 44be c01f fabb
00000140: ea05 023e a6c1 273f f60a 483d f741 d23e
00000150: 72c1 8c3e a8f2 ef3e 9352 243e 0460 77be
00000160: 2ccf c8bd 306e cbbe af53 33be 4c71 58bd
00000170: 182e 9d3d b4fe 85be ffa5 d03d fe2a 28be
00000180: 5297 0d3f c85a aabe 9b50 883e 487e 90be

model/dense/BiasAdd/ReadVariableOp:0 f4 [50]
-0.10174024 -0.017616162 0.0 0.0 0.0 -0.06224413 -0.077856354 -0.023364618
-0.096926436 -0.3945343 0.0 -0.08852876 -0.37616223 0.0 0.90281546 -0.05947578
0.0 0.11644814 0.0 -0.059152283 0.0 0.8264204 0.62603974 0.0
0.0 -0.3385709 -0.25948113 -0.004820467 0.0 0.0 -0.028867723 -0.4853479
-0.029394226 0.21641803 -0.058816765 -0.100796 -0.057205137 0.0 0.0 0.1276914
0.0 0.2710511 -0.045528755 -0.01686281 -0.026558382 0.0 -0.039521646 0.0
-0.048150912 0.0
00000000: 305d d0bd c54f 90bc 0000 0000 0000 0000
00000010: 0000 0000 b3f3 7ebd 2773 9fbd 2867 bfbc
00000020: 5e81 c6bd 6600 cabe 0000 0000 914e b5bd
00000030: 5698 c0be 0000 0000 ea1e 673f e09c 73bd
00000040: 0000 0000 5d7c ee3d 0000 0000 aa49 72bd
00000050: 0000 0000 4a90 533f 2444 203f 0000 0000
00000060: 0000 0000 2a59 adbe b6da 84be 02f5 9dbb
00000070: 0000 0000 0000 0000 017c ecbc 857f f8be
00000080: 29cc f0bc b09c 5d3e d9e9 70bd 226e cebd
00000090: ef4f 6abd 0000 0000 0000 0000 89c1 023e
000000a0: 0000 0000 36c7 8a3e 5c7c 3abd e023 8abc
000000b0: f790 d9bc 0000 0000 73e1 21bd 0000 0000
000000c0: e439 45bd 0000 0000
